Annotation4Morvan/net.pkl (torch, 2575 bytes, 4 tensors)

weight f4 [10, 2]
1.0065632 0.10276373 -0.2154047 0.037559833 0.49005947 0.9267047 0.9798441 0.33473685
-0.2530298 -0.30152926 0.3655632 -0.2881413 -1.0454322 -0.53930587 0.6374261 0.3120658
0.4300214 0.78962 -0.52759457 -1.2446808
00000000: 10d7 803f ca75 d23d 0d93 5cbe 57d8 193d
00000010: 13e9 fa3e 853c 6d3f 10d7 7a3f a162 ab3e
00000020: 1f8d 81be 0b62 9abe 1a2b bb3e 4287 93be
00000030: b9d0 85bf f30f 0abf 5b2e 233f 17c7 9f3e
00000040: c42b dc3e 8924 4a3f 7010 07bf b351 9fbf

bias f4 [10]
0.03965307 0.5227468 0.28917986 -0.11686386 -0.7363485 0.3255141 -0.11092936 0.26318341
0.00095270347 1.2094326
00000000: 426b 223d bcd2 053f 620f 943e 5256 efbd
00000010: 5681 3cbf c9a9 a63e ef2e e3bd fabf 863e
00000020: d9be 793a b0ce 9a3f

weight f4 [2, 10]
0.42308336 -0.26291522 0.38914728 0.5615176 -0.066222005 0.010680593 -0.35092413 0.29259226
0.6527757 -0.45143 -0.38539565 0.0407323 -0.5671651 -0.63870364 0.109884396 0.040451832
0.3086715 -0.46443105 -0.4261105 0.51985914
00000000: 629e d83e d39c 86be 503e c73e 9ebf 0f3f
00000010: 679f 87bd a7fd 2e3c 54ac b3be a7ce 953e
00000020: 4f1c 273f d521 e7be 9452 c5be ead6 263d
00000030: bb31 11bf 1582 23bf 120b e13d d2b0 253d
00000040: 310a 9e3e e8c9 edbe 282b dabe 7d15 053f

bias f4 [2]
-0.42857683 0.5111853
00000000: 6c6e dbbe 0add 023f
